
Config:
Samples per class: 500
Model: conv9


Loading training and test sets...





Train_y shape: 
 (100000, 200)
Test_y shape: 
 (10000, 200)
Model: "sequential_1"
_________________________________________________________________
Layer (type)                 Output Shape              Param #   
=================================================================
conv2d_1 (Conv2D)            (None, 62, 62, 64)        1792      
_________________________________________________________________
max_pooling2d_1 (MaxPooling2 (None, 31, 31, 64)        0         
_________________________________________________________________
batch_normalization_1 (Batch (None, 31, 31, 64)        256       
_________________________________________________________________
zero_padding2d_1 (ZeroPaddin (None, 33, 33, 64)        0         
_________________________________________________________________
conv2d_2 (Conv2D)            (None, 31, 31, 128)       73856     
_________________________________________________________________
max_pooling2d_2 (MaxPooling2 (None, 16, 16, 128)       0         
_________________________________________________________________
batch_normalization_2 (Batch (None, 16, 16, 128)       512       
_________________________________________________________________
zero_padding2d_2 (ZeroPaddin (None, 18, 18, 128)       0         
_________________________________________________________________
conv2d_3 (Conv2D)            (None, 16, 16, 256)       295168    
_________________________________________________________________
max_pooling2d_3 (MaxPooling2 (None, 8, 8, 256)         0         
_________________________________________________________________
batch_normalization_3 (Batch (None, 8, 8, 256)         1024      
_________________________________________________________________
zero_padding2d_3 (ZeroPaddin (None, 10, 10, 256)       0         
_________________________________________________________________
conv2d_4 (Conv2D)            (None, 8, 8, 512)         1180160   
_________________________________________________________________
max_pooling2d_4 (MaxPooling2 (None, 4, 4, 512)         0         
_________________________________________________________________
batch_normalization_4 (Batch (None, 4, 4, 512)         2048      
_________________________________________________________________
zero_padding2d_4 (ZeroPaddin (None, 6, 6, 512)         0         
_________________________________________________________________
conv2d_5 (Conv2D)            (None, 4, 4, 1024)        4719616   
_________________________________________________________________
max_pooling2d_5 (MaxPooling2 (None, 2, 2, 1024)        0         
_________________________________________________________________
batch_normalization_5 (Batch (None, 2, 2, 1024)        4096      
_________________________________________________________________
zero_padding2d_5 (ZeroPaddin (None, 4, 4, 1024)        0         
_________________________________________________________________
conv2d_6 (Conv2D)            (None, 2, 2, 512)         4719104   
_________________________________________________________________
max_pooling2d_6 (MaxPooling2 (None, 1, 1, 512)         0         
_________________________________________________________________
batch_normalization_6 (Batch (None, 1, 1, 512)         2048      
_________________________________________________________________
zero_padding2d_6 (ZeroPaddin (None, 3, 3, 512)         0         
_________________________________________________________________
conv2d_7 (Conv2D)            (None, 1, 1, 256)         1179904   
_________________________________________________________________
max_pooling2d_7 (MaxPooling2 (None, 1, 1, 256)         0         
_________________________________________________________________
batch_normalization_7 (Batch (None, 1, 1, 256)         1024      
_________________________________________________________________
zero_padding2d_7 (ZeroPaddin (None, 3, 3, 256)         0         
_________________________________________________________________
conv2d_8 (Conv2D)            (None, 1, 1, 128)         295040    
_________________________________________________________________
max_pooling2d_8 (MaxPooling2 (None, 1, 1, 128)         0         
_________________________________________________________________
batch_normalization_8 (Batch (None, 1, 1, 128)         512       
_________________________________________________________________
zero_padding2d_8 (ZeroPaddin (None, 3, 3, 128)         0         
_________________________________________________________________
conv2d_9 (Conv2D)            (None, 1, 1, 64)          73792     
_________________________________________________________________
max_pooling2d_9 (MaxPooling2 (None, 1, 1, 64)          0         
_________________________________________________________________
batch_normalization_9 (Batch (None, 1, 1, 64)          256       
_________________________________________________________________
zero_padding2d_9 (ZeroPaddin (None, 3, 3, 64)          0         
_________________________________________________________________
flatten_1 (Flatten)          (None, 576)               0         
_________________________________________________________________
dense_1 (Dense)              (None, 512)               295424    
_________________________________________________________________
dense_2 (Dense)              (None, 200)               102600    
=================================================================
Total params: 12,948,232
Trainable params: 12,942,344
Non-trainable params: 5,888
_________________________________________________________________
None


9 Conv layer model
Train on 90000 samples, validate on 10000 samples
Epoch 1/15
 - 66s - loss: 4.5068 - accuracy: 0.0664 - val_loss: 4.5361 - val_accuracy: 0.0727
Epoch 2/15
 - 67s - loss: 3.8147 - accuracy: 0.1445 - val_loss: 3.7054 - val_accuracy: 0.1605
…
