
Config:
Samples per class: 50
Model: conv6


Loading training and test sets...





Train_y shape: 
 (10000, 200)
Test_y shape: 
 (10000, 200)
Model: "sequential_1"
_________________________________________________________________
Layer (type)                 Output Shape              Param #   
=================================================================
conv2d_1 (Conv2D)            (None, 62, 62, 64)        1792      
_________________________________________________________________
max_pooling2d_1 (MaxPooling2 (None, 31, 31, 64)        0         
_________________________________________________________________
batch_normalization_1 (Batch (None, 31, 31, 64)        256       
_________________________________________________________________
zero_padding2d_1 (ZeroPaddin (None, 33, 33, 64)        0         
_________________________________________________________________
conv2d_2 (Conv2D)            (None, 31, 31, 128)       73856     
_________________________________________________________________
max_pooling2d_2 (MaxPooling2 (None, 16, 16, 128)       0         
_________________________________________________________________
batch_normalization_2 (Batch (None, 16, 16, 128)       512       
_________________________________________________________________
zero_padding2d_2 (ZeroPaddin (None, 18, 18, 128)       0         
_________________________________________________________________
conv2d_3 (Conv2D)            (None, 16, 16, 256)       295168    
_________________________________________________________________
max_pooling2d_3 (MaxPooling2 (None, 8, 8, 256)         0         
_________________________________________________________________
batch_normalization_3 (Batch (None, 8, 8, 256)         1024      
_________________________________________________________________
zero_padding2d_3 (ZeroPaddin (None, 10, 10, 256)       0         
_________________________________________________________________
conv2d_4 (Conv2D)            (None, 8, 8, 256)         590080    
_________________________________________________________________
max_pooling2d_4 (MaxPooling2 (None, 4, 4, 256)         0         
_________________________________________________________________
batch_normalization_4 (Batch (None, 4, 4, 256)         1024      
_________________________________________________________________
zero_padding2d_4 (ZeroPaddin (None, 6, 6, 256)         0         
_________________________________________________________________
conv2d_5 (Conv2D)            (None, 4, 4, 128)         295040    
_________________________________________________________________
max_pooling2d_5 (MaxPooling2 (None, 2, 2, 128)         0         
_________________________________________________________________
batch_normalization_5 (Batch (None, 2, 2, 128)         512       
_________________________________________________________________
zero_padding2d_5 (ZeroPaddin (None, 4, 4, 128)         0         
_________________________________________________________________
conv2d_6 (Conv2D)            (None, 2, 2, 64)          73792     
_________________________________________________________________
max_pooling2d_6 (MaxPooling2 (None, 1, 1, 64)          0         
_________________________________________________________________
batch_normalization_6 (Batch (None, 1, 1, 64)          256       
_________________________________________________________________
zero_padding2d_6 (ZeroPaddin (None, 3, 3, 64)          0         
_________________________________________________________________
flatten_1 (Flatten)          (None, 576)               0         
_________________________________________________________________
dense_1 (Dense)              (None, 1024)              590848    
_________________________________________________________________
dense_2 (Dense)              (None, 200)               205000    
=================================================================
Total params: 2,129,160
Trainable params: 2,127,368
Non-trainable params: 1,792
_________________________________________________________________
None


6 Conv layer model
Train on 9000 samples, validate on 1000 samples
Epoch 1/15
 - 7s - loss: 5.0997 - accuracy: 0.0221 - val_loss: 8.8984 - val_accuracy: 0.0050
Epoch 2/15
 - 3s - loss: 4.6197 - accuracy: 0.0596 - val_loss: 7.2539 - val_accuracy: 0.0210
…
