
Config:
Samples per class: 50
Model: conv3


Loading training and test sets...





Train_y shape: 
 (10000, 200)
Test_y shape: 
 (10000, 200)
Model: "sequential_1"
_________________________________________________________________
Layer (type)                 Output Shape              Param #   
=================================================================
conv2d_1 (Conv2D)            (None, 62, 62, 64)        1792      
_________________________________________________________________
max_pooling2d_1 (MaxPooling2 (None, 31, 31, 64)        0         
_________________________________________________________________
batch_normalization_1 (Batch (None, 31, 31, 64)        256       
_________________________________________________________________
zero_padding2d_1 (ZeroPaddin (None, 33, 33, 64)        0         
_________________________________________________________________
conv2d_2 (Conv2D)            (None, 31, 31, 128)       73856     
_________________________________________________________________
max_pooling2d_2 (MaxPooling2 (None, 16, 16, 128)       0         
_________________________________________________________________
batch_normalization_2 (Batch (None, 16, 16, 128)       512       
_________________________________________________________________
zero_padding2d_2 (ZeroPaddin (None, 18, 18, 128)       0         
_________________________________________________________________
conv2d_3 (Conv2D)            (None, 16, 16, 64)        73792     
_________________________________________________________________
max_pooling2d_3 (MaxPooling2 (None, 8, 8, 64)          0         
_________________________________________________________________
batch_normalization_3 (Batch (None, 8, 8, 64)          256       
_________________________________________________________________
zero_padding2d_3 (ZeroPaddin (None, 10, 10, 64)        0         
_________________________________________________________________
flatten_1 (Flatten)          (None, 6400)              0         
_________________________________________________________________
dense_1 (Dense)              (None, 1024)              6554624   
_________________________________________________________________
dense_2 (Dense)              (None, 200)               205000    
=================================================================
Total params: 6,910,088
Trainable params: 6,909,576
Non-trainable params: 512
_________________________________________________________________
None


3 Conv layer model
Train on 9000 samples, validate on 1000 samples
Epoch 1/15
 - 5s - loss: 5.2689 - accuracy: 0.0406 - val_loss: 18.2626 - val_accuracy: 0.0040
Epoch 2/15
 - 2s - loss: 3.2935 - accuracy: 0.2729 - val_loss: 7.9788 - val_accuracy: 0.0160
…
